…
an class="line">__________________________________________________________________________________________________</span><br><span class="line"> Layer (<span class="built_in">type</span>)                Output Shape                 Param <span class="comment">#   Connected to</span></span><br><span class="line">==================================================================================================</span><br><span class="line"> input_1 (InputLayer)        [(None, 224, 224, 3)]        0         []</span><br><span class="line"></span><br><span class="line"> conv1_pad (ZeroPadding2D)   (None, 230, 230, 3)          0         [<span class="string">&#x27;input_1[0][0]&#x27;</span>]</span><br><span class="line"></span><br><span class="line"> conv1_conv (Conv2D)         (None, 112, 112, 64)         9472      [<span class="string">&#x27;conv1_pad[0][0]&#x27;</span>]</span><br><span class="line"></span><br><span class="line"> conv1_bn (BatchNormalizati  (None, 112, 112, 64)         256       [<span class="string">&#x27;conv1_conv[0][0]&#x27;</span>]</span><br><span class="line"> on)</span><br><span class="line"></span><br><span class="line"> conv1_relu (Activation)     (None, 112, 112, 64)         0         [<span class="string">&#x27;conv1_bn[0][0]&#x27;</span>]</span><br><span class="line"></span><br><span class="line"> pool1_pad (ZeroPadding2D)   (None, 114, 114, 64)         0         [<span class="string">&#x27;conv1_relu[0][0]&#x27;</span>]</span><br><span class="line"></span><br><span class="line"> pool1_pool (MaxPooling2D)   (None, 56, 56, 64)           0         [<span class="string">&#x27;pool1_pad[0][0]&#x27;</span>]</span><br><span class="line"></span><br><span class="line"> conv2_block1_1_conv (Conv2  (None, 56, 56, 64)           4160      [<span class="string">&#x27;pool1_pool[0][0]&#x27;</span>]</span><br><span class="line"> D)</span><br><span class="line"></span><br><span class="line"> conv2_block1_1_bn (BatchNo  (None, 56, 56, 64)           256       [<span class="string">&#x27;conv2_block1_1_conv[0][0]&#x27;</span>]</span><br><span class="line"> rmalization)</span><br><span class="line"></span><br><span class="line"> conv2_block1_1_relu (Activ  (None, 56, 56, 64)           0         [<span class="string">&#x27;conv2_block1_1_bn[0][0]&#x27;</span>]</span><br><span class="line"> ation)</span><br><span class="line"></span><br><span class="line"> conv2_block1_2_conv (Conv2  (None, 56, 56, 64)           36928     [<span class="string">&#x27;conv2_block1_1_relu[0][0]&#x27;</span>]</span><br><span class="line"> D)</span><br><span class="line"></span><br><span class="line"> conv2_block1_2_bn (BatchNo  (None, 56, 56, 64)           256       [<span class="string">&#x27;conv2_block1_2_conv[0][0]&#x27;</span>]</span><br><span class="line"> rmalization)</span><br><span class="line"></span><br><span class="line"> conv2_block1_2_relu (Activ  (None, 56, 56, 64)           0         [<span class="string">&#x27;conv2_block1_2_bn[0][0]&#x27;</span>]</span><br><span class="line"> ation)</span><br><span class="line"></span><br><span class="line"> conv2_block1_0_conv (Conv2  (None, 56, 56, 256)          16640     [<span class="string">&#x27;pool1_pool[0][0]&#x27;</span>]</span><br><span class="line"> D)</span><br><span class="line"></span><br><span class="line"> conv2_block1_3_conv (Conv2  (None, 56, 56, 256)          16640     [<span class="string">&#x27;conv2_block1_2_relu[0][0]&#x27;</span>]</span><br><span class="line"> D)</span><br><span class="line"></span><br><span class="line"> conv2_block1_0_bn (BatchNo  (None, 56, 56, 256)          1024      [<span class="string">&#x27;conv2_block1_0_conv[0][0]&#x27;</span>]</span><br><span class="line"> rmalization)</span><br><span class="line"></span><br><span class="line"> conv2_block1_3_bn (BatchNo  (None, 56, 56, 256)          1024      [<span class="string">&#x27;conv2_block1_3_conv[0][0]&#x27;</span>]</span><br><span class="line"> rmalization)</span><br><span class="line"></span><br><span class="line"> conv2_block1_add (Add)      (None, 56, 56, 256)          0         [<span class="string">&#x27;conv2_block1_0_bn[0][0]&#x27;</span>,</span><br><span class="line">                                                                     <span class="string">&#x27;conv2_block1_3_bn[0][0]&#x27;</span>]</span><br><span class="line"></span><br><span class="line"> conv2_block1_out (Activati  (None, 56, 56, 256)          0         [<span class="string">&#x27;conv2_block1_add[0][0]&#x27;</span>]</span><br><span class="line"> on)</span><br><span class="line"></span><br><span class="line"> conv2_block2_1_conv (Conv2  (None, 56, 56, 64)           16448     [<span class="string">&#x27;conv2_block1_out[0][0]&#x27;</span>]</span><br><span class="line"> D)</span><br><span class="line"></span><br><span class="line"> conv2_block2_1_bn (BatchNo  (None, 56, 56, 64)           256       [<span class="string">&#x27;conv2_block2_1_conv[0][0]&#x27;</span>]</span><br><span class="line"> rmalization)</span><br><span class="line"></span><br><span class="line"> conv2_block2_1_relu (Activ  (None, 56, 56, 64)           0         [<span class="string">&#x27;conv2_block2_1_bn[0][0]&#x27;</span>]</span><br><span class="line"> ation)</span><br><span class="line"></span><br><span class="line"> conv2_block2_2_conv (Conv2  (None, 56, 56, 64)           36928     [<span class="string">&#x27;conv2_block2_1_relu[0][0]&#x27;</span>]</span><br><span class="line"> D)</span><br><span class="line"></span><br><span class="line"> conv2_block2_2_bn (BatchNo  (None, 56, 56, 64)           256       [<span class="string">&#x27;conv2_block2_2_conv[0][0]&#x27;</span>]</span><br><span class="line"> rmalization)</span><br><span class="line"></span><br><span class="line"> conv2_block2_2_relu (Activ  (None, 56, 56, 64)           0         [<span class="string">&#x27;conv2_block2_2_bn[0][0]&#x27;</span>]</span><br><span class="line"> ation)</span><br><span class="line"></span><br><span class="line"> conv2_block2_3_conv (Conv2  (None, 56, 56, 256)          16640     [<span class="string">&#x27;conv2_block2_2_relu[0][0]&#x27;</span>]</span><br><span class="line"> D)</span><br><span class="line"></span><br><span class="line"> conv2_block2_3_bn (BatchNo  (None, 56, 56, 256)          1024      [<span class="string">&#x27;conv2_block2_3_conv[0][0]&#x27;</span>]</span><br><span class="line"> rmalization)</span><br><span class="line"></span><br><span class="line"> conv2_block2_add (Add)      (None, 56, 56, 256)          0         [<span class="string">&#x27;conv2_block1_out[0][0]&#x27;</span>,    </span><br><span class="line">                                                                     <span class="string">&#x27;conv2_block2_3_bn[0][0]&#x27;</span>]</span><br><span class="line"></span><br><span class="line"> conv2_block2_out (Activati  (None, 56, 56, 256)          0         [<span class="string">&#x27;conv2_block2_add[0][0]&#x27;</span>]</span><br><span class="line"> on)</span><br><span class="line"></span><br><span class="line"> conv2_block3_1_conv (Conv2  (None, 56, 56, 64)           16448     [<span class="string">&#x27;conv2_block2_out[0][0]&#x27;</span>]</span><br><span class="line"> D)</span><br><span class="line"></span><br><span class="line"> conv2_block3_1_bn (BatchNo  (None, 56, 56, 64)           256       [<span class="string">&#x27;conv2_block3_1_conv[0][0]&#x27;</span>]</span><br><span class="line"> rmalization)</span><br><span class="line"></span><br><span class="line"> conv2_block3_1_relu (Activ  (None, 56, 56, 64)           0         [<span class="string">&#x27;conv2_block3_1_bn[0][0]&#x27;</span>]</span><br><span class="line"> ation)</span><br><span class="line"></span><br><span class="line"> conv2_block3_2_conv (Conv2  (None, 56, 56, 64)           36928     [<span class="string">&#x27;conv2_block3_1_relu[0][0]&#x27;</span>]</span><br><span class="line"> D)</span><br><span class="line"></span><br><span class="line"> conv2_block3_2_bn (BatchNo  (None, 56, 56, 64)           256       [<span class="string">&#x27;conv2_block3_2_conv[0][0]&#x27;</span>]</span><br><span class="line"> rmalization)</span><br><span class="line"></span><br><span class="line"> conv2_block3_2_relu (Activ  (None, 56, 56, 64)           0         [<span class="string">&#x27;conv2_block3_2_bn[0][0]&#x27;</span>]</span><br><span class="line"> ation)</span><br><span class="line"></span><br><span class="line"> conv2_block3_3_conv (Conv2  (None, 56, 56, 256)          16640     [<span class="string">&#x27;conv2_block3_2_relu[0][0]&#x27;</span>]</span><br><span class="line"> D)</span><br><span class="line"></span><br><span class="line"> conv2_block3_3_bn (BatchNo  (None, 56, 56, 256)          1024      [<span class="string">&#x27;conv2_block3_3_conv[0][0]&#x27;</span>]</span><br><span class="line"> rmalization)</span><br><span class="line"></span><br><span class="line"> conv2_block3_add (Add)      (None, 56, 56, 256)          0         [<span class="string">&#x27;conv2_block2_out[0][0]&#x27;</span>,</span><br><span class="line">                                                                     <span class="string">&#x27;conv2_block3_3_bn[0][0]&#x27;</span>]</span><br><span class="line"></span><br><span class="line"> conv2_block3_out (Activati  (None, 56, 56, 256)          0         [<span class="string">&#x27;conv2_block3_add[0][0]&#x27;</span>]</span><br><span class="line"> on)</span><br><span class="line"></span><br><span class="line"> conv3_block1_1_conv (Conv2  (None, 28, 28, 128)          32896     [<span class="string">&#x27;conv2_block3_out[0][0]&#x27;</span>]</span><br><span class="line"> D)</span><br><span class="line"></span><br><span class="line"> conv3_block1_1_bn (BatchNo  (None, 28, 28, 128)          512       [<span class="string">&#x27;conv3_block1_1_conv[0][0]&#x27;</span>]</span><br><span class="line"> rmalization)</span><br><span class="line"></span><br><span class="line"> conv3_block1_1_relu (Activ  (None, 28, 28, 128)          0         [<span class="string">&#x27;conv3_block1_1_bn[0][0]&#x27;</span>]</span><br><span class="line"> ation)</span><br><span class="line"></span><br><span class="line"> conv3_block1_2_conv (Conv2  (None, 28, 28, 128)          147584    [<span class="string">&#x27;conv3_block1_1_relu[0][0]&#x27;</span>]</span><br><span class="line"> D)</span><br><span class="line"></span><br><span class="line"> conv3_block1_2_bn (BatchNo  (None, 28, 28, 128)          512       [<span class="string">&#x27;conv3_block1_2_conv[0][0]&#x27;</span>]</span><br><span class="line"> rmalization)</span><br><span class="line"></span><br><span class="line"> conv3_block1_2_relu (Activ  (None, 28, 28, 128)          0         [<span class="string">&#x27;conv3_block1_2_bn[0][0]&#x27;</span>]   </span><br><span class="line"> ation)</span><br><span class="line"></span><br><span class="line"> conv3_block1_0_conv (Conv2  (None, 28, 28, 512)          131584    [<span class="string">&#x27;conv2_block3_out[0][0]&#x27;</span>]</span><br><span class="line"> D)</span><br><span class="line"></span><br><span class="line"> conv3_block1_3_conv (Conv2  (None, 28, 28, 512)          66048     [<span class="string">&#x27;conv3_block1_2_relu[0][0]&#x27;</span>]</span><br><span class="line"> D)</span><br><span class="line"></span><br><span class="line"> conv3_block1_0_bn (BatchNo  (None, 28, 28, 512)          2048      [<span class="string">&#x27;conv3_block1_0_conv[0][0]&#x27;</span>]</span><br><span class="line"> rmalization)</span><br><span class="line"></span><br><span class="line"> conv3_block1_3_bn (BatchNo  (None, 28, 28, 512)          2048      [<span class="string">&#x27;conv3_block1_3_conv[0][0]&#x27;</span>]</span><br><span class="line"> rmalization)</span><br><span class="line"></span><br><span class="line"> conv3_block1_add (Add)      (None, 28, 28, 512)          0         [<span class="string">&#x27;conv3_block1_0_bn[0][0]&#x27;</span>,</span><br><span class="line">                                                                     <span class="string">&#x27;conv3_block1_3_bn[0][0]&#x27;</span>]</span><br><span class="line"></span><br><span class="line"> conv3_block1_out (Activati  (None, 28, 28, 512)          0         [<span class="string">&#x27;conv3_block1_add[0][0]&#x27;</span>]</span><br><span class="line"> on)</span><br><span class="line"></span><br><span class="line"> conv3_block2_1_conv (Conv2  (None, 28, 28, 128)          65664     [<span class="string">&#x27;conv3_block1_out[0][0]&#x27;</span>]</span><br><span class="line"> D)</span><br><span class="line"></span><br><span class="line"> conv3_block2_1_bn (BatchNo  (None, 28, 28, 128)          512       [<span class="string">&#x27;conv3_block2_1_conv[0][0]&#x27;</span>]</span><br><span class="line"> rmalization)</span><br><span class="line"></span><br><span class="line"> conv3_block2_1_relu (Activ  (None, 28, 28, 128)          0         [<span class="string">&#x27;conv3_block2_1_bn[0][0]&#x27;</span>]</span><br><span class="line"> ation)</span><br><span class="line"></span><br><span class="line"> conv3_block2_2_conv (Conv2  (None, 28, 28, 128)          147584    [<span class="string">&#x27;conv3_block2_1_relu[0][0]&#x27;</span>]</span><br><span class="line"> D)</span><br><span class="line"></span><br><span class="line"> conv3_block2_2_bn (BatchNo  (None, 28, 28, 128)          512       [<span class="string">&#x27;conv3_block2_2_conv[0][0]&#x27;</span>]</span><br><span class="line"> rmalization)</span><br><span class="line"></span><br><span class="line"> conv3_block2_2_relu (Activ  (None, 28, 28, 128)          0         [<span class="string">&#x27;conv3_block2_2_bn[0][0]&#x27;</span>]</span><br><span class="line"> ation)</span><br><span class="line"></span><br><span class="line"> conv3_block2_3_conv (Conv2  (None, 28, 28, 512)          66048     [<span class="string">&#x27;conv3_block2_2_relu[0][0]&#x27;</span>]</span><br><span class="line"> D)</span><br><span class="line"></span><br><span class="line"> conv3_block2_3_bn (BatchNo  (None, 28, 28, 512)          2048      [<span class="string">&#x27;conv3_block2_3_conv[0][0]&#x27;</span>]</span><br><span class="line"> rmalization)</span><br><span class="line"></span><br><span class="line"> conv3_block2_add (Add)      (None, 28, 28, 512)          0         [<span class="string">&#x27;conv3_block1_out[0][0]&#x27;</span>,</span><br><span class="line">                                                                     <span class="string">&#x27;conv3_block2_3_bn[0][0]&#x27;</span>]</span><br><span class="line"></span><br><span class="line"> conv3_block2_out (Activati  (None, 28, 28, 512)          0         [<span class="string">&#x27;conv3_block2_add[0][0]&#x27;</span>]</span><br><span class="line"> on)</span><br><span class="line"></span><br><span class="line"> conv3_block3_1_conv (Conv2  (None, 28, 28, 128)          65664     [<span class="string">&#x27;conv3_block2_out[0][0]&#x27;</span>]</span><br><span class="line"> D)</span><br><span class="line"></span><br><span class="line"> conv3_block3_1_bn (BatchNo  (None, 28, 28, 128)          512       [<span class="string">&#x27;conv3_block3_1_conv[0][0]&#x27;</span>]</span><br><span class="line"> rmalization)</span><br><span class="line"></span><br><span class="line"> conv3_block3_1_relu (Activ  (None, 28, 28, 128)          0         [<span class="string">&#x27;conv3_block3_1_bn[0][0]&#x27;</span>]</span><br><span class="line"> ation)</span><br><span class="line"></span><br><span class="line"> conv3_block3_2_conv (Conv2  (None, 28, 28, 128)          147584    [<span class="string">&#x27;conv3_block3_1_relu[0][0]&#x27;</span>]</span><br><span class="line"> D)</span><br><span class="line"></span><br><span class="line"> conv3_block3_2_bn (BatchNo  (None, 28, 28, 128)          512       [<span class="string">&#x27;conv3_block3_2_conv[0][0]&#x27;</span>]</span><br><span class="line"> rmalization)</span><br><span class="line"></span><br><span class="line"> conv3_block3_2_relu (Activ  (None, 28, 28, 128)          0         [<span class="string">&#x27;conv3_block3_2_bn[0][0]&#x27;</span>]</span><br><span class="line"> ation)</span><br><span class="line"></span><br><span class="line"> conv3_block3_3_conv (Conv2  (None, 28, 28, 512)          66048     [<span class="string">&#x27;conv3_block3_2_relu[0][0]&#x27;</span>]</span><br><span class="line"> D)</span><br><span class="line"></span><br><span class="line"> conv3_block3_3_bn (BatchNo  (None, 28, 28, 512)          2048      [<span class="string">&#x27;conv3_block3_3_conv[0][0]&#x27;</span>]</span><br><span class="line"> rmalization)</span><br><span class="line"></span><br><span class="line"> conv3_block3_add (Add)      (None, 28, 28, 512)          0         [<span class="string">&#x27;conv3_block2_out[0][0]&#x27;</span>,</span><br><span class="line">                                                                     <span class="string">&#x27;conv3_block3_3_bn[0][0]&#x27;</span>]</span><br><span class="line"></span><br><span class="line"> conv3_block3_out (Activati  (None, 28, 28, 512)          0         [<span class="string">&#x27;conv3_block3_add[0][0]&#x27;</span>]</span><br><span class="line"> on)</span><br><span class="line"></span><br><span class="line"> conv3_block4_1_conv (Conv2  (None, 28, 28, 128)          65664     [<span class="string">&#x27;conv3_block3_out[0][0]&#x27;</span>]</span><br><span class="line"> D)</span><br><span class="line"></span><br><span class="line"> conv3_block4_1_bn (BatchNo  (None, 28, 28, 128)          512       [<span class="string">&#x27;conv3_block4_1_conv[0][0]&#x27;</span>]</span><br><span class="line"> rmalization)</span><br><span class="line"></span><br><span class="line"> conv3_block4_1_relu (Activ  (None, 28, 28, 128)          0         [<span class="string">&#x27;conv3_block4_1_bn[0][0]&#x27;</span>]</span><br><span class="line"> ation)</span><br><span class="line"></span><br><span class="line"> conv3_block4_2_conv (Conv2  (None, 28, 28, 128)          147584    [<span class="string">&#x27;conv3_block4_1_relu[0][0]&#x27;</span>]</span><br><span class="line"> D)</span><br><span class="line"></span><br><span class="line"> conv3_block4_2_bn (BatchNo  (None, 28, 28, 128)          512       [<span class="string">&#x27;conv3_block4_2_conv[0][0]&#x27;</span>]</span><br><span class="line"> rmalization)</span><br><span class="line"></span><br><span class="line"> conv3_block4_2_relu (Activ  (None, 28, 28, 128)          0         [<span class="string">&#x27;conv3_block4_2_bn[0][0]&#x27;</span>]</span><br><span class="line"> ation)</span><br><span class="line"></span><br><span class="line"> conv3_block4_3_conv (Conv2  (None, 28, 28, 512)          66048     [<span class="string">&#x27;conv3_block4_2_relu[0][0]&#x27;</span>]</span><br><span class="line"> D)</span><br><span class="line"></span><br><span class="line"> conv3_block4_3_bn (BatchNo  (None, 28, 28, 512)          2048      [<span class="string">&#x27;conv3_block4_3_conv[0][0]&#x27;</span>]</span><br><span class="line"> rmalization)</span><br><span class="line"></span><br><span class="line"> conv3_block4_add (Add)      (None, 28, 28, 512)          0         [<span class="string">&#x27;conv3_block3_out[0][0]&#x27;</span>,</span><br><span class="line">                                                                     <span class="string">&#x27;conv3_block4_3_bn[0][0]&#x27;</span>]</span><br><span class="line"></span><br><span class="line"> conv3_block4_out (Activati  (None, 28, 28, 512)          0         [<span class="string">&#x27;conv3_block4_add[0][0]&#x27;</span>]</span><br><span class="line"> on)</span><br><span class="line"></span><br><span class="line"> conv4_block1_1_conv (Conv2  (None, 14, 14, 256)          131328    [<span class="string">&#x27;conv3_block4_out[0][0]&#x27;</span>]</span><br><span class="line"> D)</span><br><span class="line"></span><br><span class="line"> conv4_block1_1_bn (BatchNo  (None, 14, 14, 256)          1024      [<span class="string">&#x27;conv4_block1_1_conv[0][0]&#x27;</span>]</span><br><span class="line"> rmalization)</span><br><span class="line"></span><br><span class="line"> conv4_block1_1_relu (Activ  (None, 14, 14, 256)          0         [<span class="string">&#x27;conv4_block1_1_bn[0][0]&#x27;</span>]</span><br><span class="line"> ation)</span><br><span class="line"></span><br><span class="line"> conv4_block1_2_conv (Conv2  (None, 14, 14, 256)          590080    [<span class="string">&#x27;conv4_block1_1_relu[0][0]&#x27;</span>]</span><br><span class="line"> D)</span><br><span class="line"></span><br><span class="line"> conv4_block1_2_bn (BatchNo  (None, 14, 14, 256)          1024      [<span class="string">&#x27;conv4_block1_2_conv[0][0]&#x27;</span>]</span><br><span class="line"> rmalization)</span><br><span class="line"></span><br><span class="line"> conv4_block1_2_relu (Activ  (None, 14, 14, 256)          0         [<span class="string">&#x27;conv4_block1_2_bn[0][0]&#x27;</span>]</span><br><span class="line"> ation)</span><br><span class="line"></span><br><span class="line"> conv4_block1_0_conv (Conv2  (None, 14, 14, 1024)         525312    [<span class="string">&#x27;conv3_block4_out[0][0]&#x27;</span>]</span><br><span class="line"> D)</span><br><span class="line"></span><br><span class="line"> conv4_block1_3_conv (Conv2  (None, 14, 14, 1024)         263168    [<span class="string">&#x27;conv4_block1_2_relu[0][0]&#x27;</span>]</span><br><span class="line"> D)</span><br><span class="line"></span><br><span class="line"> conv4_block1_0_bn (BatchNo  (None, 14, 14, 1024)         4096      [<span class="string">&#x27;conv4_block1_0_conv[0][0]&#x27;</span>]</span><br><span class="line"> rmalization)</span><br><span class="line"></span><br><span class="line"> conv4_block1_3_bn (BatchNo  (None, 14, 14, 1024)         4096      [<span class="string">&#x27;conv4_block1_3_conv[0][0]&#x27;</span>]</span><br><span class="line"> rmalization)</span><br><span class="line"></span><br><span class="line"> conv4_block1_add (Add)      (None, 14, 14, 1024)         0         [<span class="string">&#x27;conv4_block1_0_bn[0][0]&#x27;</span>,</span><br><span class="line">                                                                     <span class="string">&#x27;conv4_block1_3_bn[0][0]&#x27;</span>]</span><br><span class="line"></span><br><span class="line"> conv4_block1_out (Activati  (None, 14, 14, 1024)         0         [<span class="string">&#x27;conv4_block1_add[0][0]&#x27;</span>]</span><br><span class="line"> on)</span><br><span class="line"></span><br><span class="line"> conv4_block2_1_conv (Conv2  (None, 14, 14, 256)          262400    [<span class="string">&#x27;conv4_block1_out[0][0]&#x27;</span>]</span><br><span class="line"> D)</span><br><span class="line"></span><br><span class="line"> conv4_block2_1_bn (BatchNo  (None, 14, 14, 256)          1024      [<span class="string">&#x27;conv4_block2_1_conv[0][0]&#x27;</span>]</span><br><span class="line"> rmalization)</span><br><span class="line"></span><br><span class="line"> conv4_block2_1_relu (Activ  (None, 14, 14, 256)          0         [<span class="string">&#x27;conv4_block2_1_bn[0][0]&#x27;</span>]</span><br><span class="line"> ation)</span><br><span class="line"></span><br><span class="line"> conv4_block2_2_conv (Conv2  (None, 14, 14, 256)          590080    [<span class="string">&#x27;conv4_block2_1_relu[0][0]&#x27;</span>]</span><br><span class="line"> D)</span><br><span class="line"></span><br><span class="line"> conv4_block2_2_bn (BatchNo  (None, 14, 14, 256)          1024      [<span class="string">&#x27;conv4_block2_2_conv[0][0]&#x27;</span>]</span><br><span class="line"> rmalization)</span><br><span class="line"></span><br><span class="line"> conv4_block2_2_relu (Activ  (None, 14, 14, 256)          0         [<span class="string">&#x27;conv4_block2_2_bn[0][0]&#x27;</span>]</span><br><span class="line"> ation)</span><br><span class="line"></span><br><span class="line"> conv4_block2_3_conv (Conv2  (None, 14, 14, 1024)         263168    [<span class="string">&#x27;conv4_block2_2_relu[0][0]&#x27;</span>]</span><br><span class="line"> D)</span><br><span class="line"></span><br><span class="line"> conv4_block2_3_bn (BatchNo  (None, 14, 14, 1024)         4096      [<span class="string">&#x27;conv4_block2_3_conv[0][0]&#x27;</span>]</span><br><span class="line"> rmalization)</span><br><span class="line"></span><br><span class="line"> conv4_block2_add (Add)      (None, 14, 14, 1024)         0         [<span class="string">&#x27;conv4_block1_out[0][0]&#x27;</span>,</span><br><span class="line">                                                                     <span class="string">&#x27;conv4_block2_3_bn[0][0]&#x27;</span>]</span><br><span class="line"></span><br><span class="line"> conv4_block2_out (Activati  (None, 14, 14, 1024)         0         [<span class="string">&#x27;conv4_block2_add[0][0]&#x27;</span>]</span><br><span class="line"> on)</span><br><span class="line"></span><br><span class="line"> conv4_block3_1_conv (Conv2  (None, 14, 14, 256)          262400    [<span class="string">&#x27;conv4_block2_out[0][0]&#x27;</span>]</span><br><span class="line"> D)</span><br><span class="line"></span><br><span class="line"> conv4_block3_1_bn (BatchNo  (None, 14, 14, 256)          1024      [<span class="string">&#x27;conv4_block3_1_conv[0][0]&#x27;</span>] </span><br><span class="line"> rmalization)</span><br><span class="line"></span><br><span class="line"> conv4_block3_1_relu (Activ  (None, 14, 14, 256)          0         [<span class="string">&#x27;conv4_block3_1_bn[0][0]&#x27;</span>]</span><br><span class="line"> ation)</span><br><span class="line"></span><br><span class="line"> conv4_block3_2_conv (Conv2  (None, 14, 14, 256)          590080    [<span class="string">&#x27;conv4_block3_1_relu[0][0]&#x27;</span>]</span><br><span class="line"> D)</span><br><span class="line"></span><br><span class="line"> conv4_block3_2_bn (BatchNo  (None, 14, 14, 256)          1024      [<span class="string">&#x27;conv4_block3_2_conv[0][0]&#x27;</span>]</span><br><span class="line"> rmalization)</span><br><span class="line"></span><br><span class="line"> conv4_block3_2_relu (Activ  (None, 14, 14, 256)          0         [<span class="string">&#x27;conv4_block3_2_bn[0][0]&#x27;</span>]</span><br><span class="line"> ation)</span><br><span class="line"></span><br><span class="line"> conv4_block3_3_conv (Conv2  (None, 14, 14, 1024)         263168    [<span class="string">&#x27;conv4_block3_2_relu[0][0]&#x27;</span>]</span><br><span class="line"> D)</span><br><span class="line"></span><br><span class="line"> conv4_block3_3_bn (BatchNo  (None, 14, 14, 1024)         4096      [<span class="string">&#x27;conv4_block3_3_conv[0][0]&#x27;</span>]</span><br><span class="line"> rmalization)</span><br><span class="line"></span><br><span class="line"> conv4_block3_add (Add)      (None, 14, 14, 1024)         0         [<span class="string">&#x27;conv4_block2_out[0][0]&#x27;</span>,</span><br><span class="line">                                                                     <span class="string">&#x27;conv4_block3_3_bn[0][0]&#x27;</span>]</span><br><span class="line"></span><br><span class="line"> conv4_block3_out (Activati  (None, 14, 14, 1024)         0         [<span class="string">&#x27;conv4_block3_add[0][0]&#x27;</span>]</span><br><span class="line"> on)</span><br><span class="line"></span><br><span class="line"> conv4_block4_1_conv (Conv2  (None, 14, 14, 256)          262400    [<span class="string">&#x27;conv4_block3_out[0][0]&#x27;</span>]</span><br><span class="line"> D)</span><br><span class="line"></span><br><span class="line"> conv4_block4_1_bn (BatchNo  (None, 14, 14, 256)          1024      [<span class="string">&#x27;conv4_block4_1_conv[0][0]&#x27;</span>]</span><br><span class="line"> rmalization)</span><br><span class="line"></span><br><span class="line"> conv4_block4_1_relu (Activ  (None, 14, 14, 256)          0         [<span class="string">&#x27;conv4_block4_1_bn[0][0]&#x27;</span>]</span><br><span class="line"> ation)</span><br><span class="line"></span><br><span class="line"> conv4_block4_2_conv (Conv2  (None, 14, 14, 256)          590080    [<span class="string">&#x27;conv4_block4_1_relu[0][0]&#x27;</span>]</span><br><span class="line"> D)</span><br><span class="line"></span><br><span class="line"> conv4_block4_2_bn (BatchNo  (None, 14, 14, 256)          1024      [<span class="string">&#x27;conv4_block4_2_conv[0][0]&#x27;</span>]</span><br><span class="line"> rmalization)</span><br><span class="line"></span><br><span class="line"> conv4_block4_2_relu (Activ  (None, 14, 14, 256)          0         [<span class="string">&#x27;conv4_block4_2_bn[0][0]&#x27;</span>]</span><br><span class="line"> ation)</span><br><span class="line"></span><br><span class="line"> conv4_block4_3_conv (Conv2  (None, 14, 14, 1024)         263168    [<span class="string">&#x27;conv4_block4_2_relu[0][0]&#x27;</span>]</span><br><span class="line"> D)</span><br><span class="line"></span><br><span class="line"> conv4_block4_3_bn (BatchNo  (None, 14, 14, 1024)         4096      [<span class="string">&#x27;conv4_block4_3_conv[0][0]&#x27;</span>]</span><br><span class="line"> rmalization)</span><br><span class="line"></span><br><span class="line"> conv4_block4_add (Add)      (None, 14, 14, 1024)         0         [<span class="string">&#x27;conv4_block3_out[0][0]&#x27;</span>,</span><br><span class="line">                                                                     <span class="string">&#x27;conv4_block4_3_bn[0][0]&#x27;</span>]</span><br><span class="line"></span><br><span class="line"> conv4_block4_out (Activati  (None, 14, 14, 1024)         0         [<span class="string">&#x27;conv4_block4_add[0][0]&#x27;</span>]</span><br><span class="line"> on)</span><br><span class="line"></span><br><span class="line"> conv4_block5_1_conv (Conv2  (None, 14, 14, 256)          262400    [<span class="string">&#x27;conv4_block4_out[0][0]&#x27;</span>]</span><br><span class="line"> D)</span><br><span class="line"></span><br><span class="line"> conv4_block5_1_bn (BatchNo  (None, 14, 14, 256)          1024      [<span class="string">&#x27;conv4_block5_1_conv[0][0]&#x27;</span>]</span><br><span class="line"> rmalization)</span><br><span class="line"></span><br><span class="line"> conv4_block5_1_relu (Activ  (None, 14, 14, 256)          0         [<span class="string">&#x27;conv4_block5_1_bn[0][0]&#x27;</span>]</span><br><span class="line"> ation)</span><br><span class="line"></span><br><span class="line"> conv4_block5_2_conv (Conv2  (None, 14, 14, 256)          590080    [<span class="string">&#x27;conv4_block5_1_relu[0][0]&#x27;</span>]</span><br><span class="line"> D)</span><br><span class="line"></span><br><span class="line"> conv4_block5_2_bn (BatchNo  (None, 14, 14, 256)          1024      [<span class="string">&#x27;conv4_block5_2_conv[0][0]&#x27;</span>]</span><br><span class="line"> rmalization)</span><br><span class="line"></span><br><span class="line"> conv4_block5_2_relu (Activ  (None, 14, 14, 256)          0         [<span class="string">&#x27;conv4_block5_2_bn[0][0]&#x27;</span>]</span><br><span class="line"> ation)</span><br><span class="line"></span><br><span class="line"> conv4_block5_3_conv (Conv2  (None, 14, 14, 1024)         263168    [<span class="string">&#x27;conv4_block5_2_relu[0][0]&#x27;</span>]</span><br><span class="line"> D)</span><br><span class="line"></span><br><span class="line"> conv4_block5_3_bn (BatchNo  (None, 14, 14, 1024)         4096      [<span class="string">&#x27;conv4_block5_3_conv[0][0]&#x27;</span>]</span><br><span class="line"> rmalization)</span><br><span class="line"></span><br><span class="line"> conv4_block5_add (Add)      (None, 14, 14, 1024)         0         [<span class="string">&#x27;conv4_block4_out[0][0]&#x27;</span>,</span><br><span class="line">                                                                     <span class="string">&#x27;conv4_block5_3_bn[0][0]&#x27;</span>]</span><br><span class="line"></span><br><span class="line"> conv4_block5_out (Activati  (None, 14, 14, 1024)         0         [<span class="string">&#x27;conv4_block5_add[0][0]&#x27;</span>]</span><br><span class="line"> on)</span><br><span class="line"></span><br><span class="line"> conv4_block6_1_conv (Conv2  (None, 14, 14, 256)          262400    [<span class="string">&#x27;conv4_block5_out[0][0]&#x27;</span>]</span><br><span class="line"> D)</span><br><span class="line"></span><br><span class="line"> conv4_block6_1_bn (BatchNo  (None, 14, 14, 256)          1024      [<span class="string">&#x27;conv4_block6_1_conv[0][0]&#x27;</span>]</span><br><span class="line"> rmalization)</span><br><span class="line"></span><br><span class="line"> conv4_block6_1_relu (Activ  (None, 14, 14, 256)          0         [<span class="string">&#x27;conv4_block6_1_bn[0][0]&#x27;</span>]</span><br><span class="line"> ation)</span><br><span class="line"></span><br><span class="line"> conv4_block6_2_conv (Conv2  (None, 14, 14, 256)          590080    [<span class="string">&#x27;conv4_block6_1_relu[0][0]&#x27;</span>]</span><br><span class="line"> D)</span><br><span class="line"></span><br><span class="line"> conv4_block6_2_bn (BatchNo  (None, 14, 14, 256)          1024      [<span class="string">&#x27;conv4_block6_2_conv[0][0]&#x27;</span>]</span><br><span class="line"> rmalization)</span><br><span class="line"></span><br><span class="line"> conv4_block6_2_relu (Activ  (None, 14, 14, 256)          0         [<span class="string">&#x27;conv4_block6_2_bn[0][0]&#x27;</span>]</span><br><span class="line"> ation)</span><br><span class="line"></span><br><span class="line"> conv4_block6_3_conv (Conv2  (None, 14, 14, 1024)         263168    [<span class="string">&#x27;conv4_block6_2_relu[0][0]&#x27;</span>]</span><br><span class="line"> D)</span><br><span class="line"></span><br><span class="line"> conv4_block6_3_bn (BatchNo  (None, 14, 14, 1024)         4096      [<span class="string">&#x27;conv4_block6_3_conv[0][0]&#x27;</span>]</span><br><span class="line"> rmalization)</span><br><span class="line"></span><br><span class="line"> conv4_block6_add (Add)      (None, 14, 14, 1024)         0         [<span class="string">&#x27;conv4_block5_out[0][0]&#x27;</span>,</span><br><span class="line">                                                                     <span class="string">&#x27;conv4_block6_3_bn[0][0]&#x27;</span>]</span><br><span class="line"></span><br><span class="line"> conv4_block6_out (Activati  (None, 14, 14, 1024)         0         [<span class="string">&#x27;conv4_block6_add[0][0]&#x27;</span>]</span><br><span class="line"> on)</span><br><span class="line"></span><br><span class="line"> conv5_block1_1_conv (Conv2  (None, 7, 7, 512)            524800    [<span class="string">&#x27;conv4_block6_out[0][0]&#x27;</span>]</span><br><span class="line"> D)</span><br><span class="line"></span><br><span class="line"> conv5_block1_1_bn (BatchNo  (None, 7, 7, 512)            2048      [<span class="string">&#x27;conv5_block1_1_conv[0][0]&#x27;</span>]</span><br><span class="line"> rmalization)</span><br><span class="line"></span><br><span class="line"> conv5_block1_1_relu (Activ  (None, 7, 7, 512)            0         [<span class="string">&#x27;conv5_block1_1_bn[0][0]&#x27;</span>]</span><br><span class="line"> ation)</span><br><span class="line"></span><br><span class="line"> conv5_block1_2_conv (Conv2  (None, 7, 7, 512)            2359808   [<span class="string">&#x27;conv5_block1_1_relu[0][0]&#x27;</span>]</span><br><span class="line"> D)</span><br><span class="line"></span><br><span class="line"> conv5_block1_2_bn (BatchNo  (None, 7, 7, 512)            2048      [<span class="string">&#x27;conv5_block1_2_conv[0][0]&#x27;</span>]</span><br><span class="line"> rmalization)</span><br><span class="line"></span><br><span class="line"> conv5_block1_2_relu (Activ  (None, 7, 7, 512)            0         [<span class="string">&#x27;conv5_block1_2_bn[0][0]&#x27;</span>]</span><br><span class="line"> ation)</span><br><span class="line"></span><br><span class="line"> conv5_block1_0_conv (Conv2  (None, 7, 7, 2048)           2099200   [<span class="string">&#x27;conv4_block6_out[0][0]&#x27;</span>]</span><br><span class="line"> D)</span><br><span class="line"></span><br><span class="line"> conv5_block1_3_conv (Conv2  (None, 7, 7, 2048)           1050624   [<span class="string">&#x27;conv5_block1_2_relu[0][0]&#x27;</span>]</span><br><span class="line"> D)</span><br><span class="line"></span><br><span class="line"> conv5_block1_0_bn (BatchNo  (None, 7, 7, 2048)           8192      [<span class="string">&#x27;conv5_block1_0_conv[0][0]&#x27;</span>]</span><br><span class="line"> rmalization)</span><br><span class="line"></span><br><span class="line"> conv5_block1_3_bn (BatchNo  (None, 7, 7, 2048)           8192      [<span class="string">&#x27;conv5_block1_3_conv[0][0]&#x27;</span>]</span><br><span class="line"> rmalization)</span><br><span class="line"></span><br><span class="line"> conv5_block1_add (Add)      (None, 7, 7, 2048)           0         [<span class="string">&#x27;conv5_block1_0_bn[0][0]&#x27;</span>,</span><br><span class="line">                                                                     <span class="string">&#x27;conv5_block1_3_bn[0][0]&#x27;</span>]</span><br><span class="line"></span><br><span class="line"> conv5_block1_out (Activati  (None, 7, 7, 2048)           0         [<span class="string">&#x27;conv5_block1_add[0][0]&#x27;</span>]</span><br><span class="line"> on)</span><br><span class="line"></span><br><span class="line"> conv5_block2_1_conv (Conv2  (None, 7, 7, 512)            1049088   [<span class="string">&#x27;conv5_block1_out[0][0]&#x27;</span>]</span><br><span class="line"> D)</span><br><span class="line"></span><br><span class="line"> conv5_block2_1_bn (BatchNo  (None, 7, 7, 512)            2048      [<span class="string">&#x27;conv5_block2_1_conv[0][0]&#x27;</span>]</span><br><span class="line"> rmalization)</span><br><span class="line"></span><br><span class="line"> conv5_block2_1_relu (Activ  (None, 7, 7, 512)            0         [<span class="string">&#x27;conv5_block2_1_bn[0][0]&#x27;</span>]</span><br><span class="line"> ation)</span><br><span class="line"></span><br><span class="line"> conv5_block2_2_conv (Conv2  (None, 7, 7, 512)            2359808   [<span class="string">&#x27;conv5_block2_1_relu[0][0]&#x27;</span>]</span><br><span class="line"> D)</span><br><span class="line"></span><br><span class="line"> conv5_block2_2_bn (BatchNo  (None, 7, 7, 512)            2048      [<span class="string">&#x27;conv5_block2_2_conv[0][0]&#x27;</span>]</span><br><span class="line"> rmalization)</span><br><span class="line"></span><br><span class="line"> conv5_block2_2_relu (Activ  (None, 7, 7, 512)            0         [<span class="string">&#x27;conv5_block2_2_bn[0][0]&#x27;</span>]</span><br><span class="line"> ation)</span><br><span class="line"></span><br><span class="line"> conv5_block2_3_conv (Conv2  (None, 7, 7, 2048)           1050624   [<span class="string">&#x27;conv5_block2_2_relu[0][0]&#x27;</span>]</span><br><span class="line"> D)</span><br><span class="line"></span><br><span class="line"> conv5_block2_3_bn (BatchNo  (None, 7, 7, 2048)           8192      [<span class="string">&#x27;conv5_block2_3_conv[0][0]&#x27;</span>]</span><br><span class="line"> rmalization)</span><br><span class="line"></span><br><span class="line"> conv5_block2_add (Add)      (None, 7, 7, 2048)           0         [<span class="string">&#x27;conv5_block1_out[0][0]&#x27;</span>,</span><br><span class="line">                                                                     <span class="string">&#x27;conv5_block2_3_bn[0][0]&#x27;</span>]</span><br><span class="line"></span><br><span class="line"> conv5_block2_out (Activati  (None, 7, 7, 2048)           0         [<span class="string">&#x27;conv5_block2_add[0][0]&#x27;</span>]</span><br><span class="line"> on)</span><br><span class="line"></span><br><span class="line"> conv5_block3_1_conv (Conv2  (None, 7, 7, 512)            1049088   [<span class="string">&#x27;conv5_block2_out[0][0]&#x27;</span>]</span><br><span class="line"> D)</span><br><span class="line"></span><br><span class="line"> conv5_block3_1_bn (BatchNo  (None, 7, 7, 512)            2048      [<span class="string">&#x27;conv5_block3_1_conv[0][0]&#x27;</span>]</span><br><span class="line"> rmalization)</span><br><span class="line"></span><br><span class="line"> conv5_block3_1_relu (Activ  (None, 7, 7, 512)            0         [<span class="string">&#x27;conv5_block3_1_bn[0][0]&#x27;</span>]</span><br><span class="line"> ation)</span><br><span class="line"></span><br><span class="line"> conv5_block3_2_conv (Conv2  (None, 7, 7, 512)            2359808   [<span class="string">&#x27;conv5_block3_1_relu[0][0]&#x27;</span>]</span><br><span class="line"> D)</span><br><span class="line"></span><br><span class="line"> conv5_block3_2_bn (BatchNo  (None, 7, 7, 512)            2048      [<span class="string">&#x27;conv5_block3_2_conv[0][0]&#x27;</span>]</span><br><span class="line"> rmalization)</span><br><span class="line"></span><br><span class="line"> conv5_block3_2_relu (Activ  (None, 7, 7, 512)            0         [<span class="string">&#x27;conv5_block3_2_bn[0][0]&#x27;</span>]</span><br><span class="line"> ation)</span><br><span class="line"></span><br><span class="line"> conv5_block3_3_conv (Conv2  (None, 7, 7, 2048)           1050624   [<span class="string">&#x27;conv5_block3_2_relu[0][0]&#x27;</span>]</span><br><span class="line"> D)</span><br><span class="line"></span><br><span class="line"> conv5_block3_3_bn (BatchNo  (None, 7, 7, 2048)           8192      [<span class="string">&#x27;conv5_block3_3_conv[0][0]&#x27;</span>]</span><br><span class="line"> rmalization)</span><br><span class="line"></span><br><span class="line"> conv5_block3_add (Add)      (None, 7, 7, 2048)           0         [<span class="string">&#x27;conv5_block2_out[0][0]&#x27;</span>,</span><br><span class="line">                                                                     <span class="string">&#x27;conv5_block3_3_bn[0][0]&#x27;</span>]</span><br><span class="line"></span><br><span class="line"> conv5_block3_out (Activati  (None, 7, 7, 2048)           0         [<span class="string">&#x27;conv5_block3_add[0][0]&#x27;</span>]</span><br><span class="line"> on)</span><br><span class="line"></span><br><span class="line"> dense (Dense)               (None, 7, 7, 1000)           2049000   [<span class="string">&#x27;conv5_block3_out[0][0]&#x27;</span>]</span><br><span class="line"></span><br><span class="line"> lambda (Lambda)             (None, 7, 7, 1000)           0         [<span class="string">&#x27;dense[0][0]&#x27;</span>]</span><br><span class="line"></span><br><span class="line">==================================================================================================</span><br><span class="line">Total params: 25636712 (97.80 MB)</span><br><span class="line">Trainable params: 25583592 (97.59 MB)</span><br><span class="line">Non-trainable params
…
